base shape, (?, ?, 2)
__________________________________________________________________________________________________
Layer (type)                    Output Shape         Param #     Connected to                     
==================================================================================================
input_1 (InputLayer)            (None, 256, 256, 5)  0                                            
__________________________________________________________________________________________________
conv2d_1 (Conv2D)               (None, 256, 256, 32) 1472        input_1[0][0]                    
__________________________________________________________________________________________________
conv2d_2 (Conv2D)               (None, 256, 256, 32) 9248        conv2d_1[0][0]                   
__________________________________________________________________________________________________
max_pooling2d_1 (MaxPooling2D)  (None, 128, 128, 32) 0           conv2d_2[0][0]                   
__________________________________________________________________________________________________
conv2d_3 (Conv2D)               (None, 128, 128, 64) 18496       max_pooling2d_1[0][0]            
__________________________________________________________________________________________________
conv2d_4 (Conv2D)               (None, 128, 128, 64) 36928       conv2d_3[0][0]                   
__________________________________________________________________________________________________
max_pooling2d_2 (MaxPooling2D)  (None, 64, 64, 64)   0           conv2d_4[0][0]                   
__________________________________________________________________________________________________
conv2d_5 (Conv2D)               (None, 64, 64, 128)  73856       max_pooling2d_2[0][0]            
__________________________________________________________________________________________________
conv2d_6 (Conv2D)               (None, 64, 64, 128)  147584      conv2d_5[0][0]                   
__________________________________________________________________________________________________
max_pooling2d_3 (MaxPooling2D)  (None, 32, 32, 128)  0           conv2d_6[0][0]                   
__________________________________________________________________________________________________
conv2d_7 (Conv2D)               (None, 32, 32, 256)  295168      max_pooling2d_3[0][0]            
__________________________________________________________________________________________________
conv2d_8 (Conv2D)               (None, 32, 32, 256)  590080      conv2d_7[0][0]                   
__________________________________________________________________________________________________
max_pooling2d_4 (MaxPooling2D)  (None, 16, 16, 256)  0           conv2d_8[0][0]                   
__________________________________________________________________________________________________
conv2d_9 (Conv2D)               (None, 16, 16, 512)  1180160     max_pooling2d_4[0][0]            
__________________________________________________________________________________________________
conv2d_10 (Conv2D)              (None, 16, 16, 512)  2359808     conv2d_9[0][0]                   
__________________________________________________________________________________________________
up_sampling2d_1 (UpSampling2D)  (None, 32, 32, 512)  0           conv2d_10[0][0]                  
__________________________________________________________________________________________________
concatenate_1 (Concatenate)     (None, 32, 32, 768)  0           up_sampling2d_1[0][0]            
                                                                 conv2d_8[0][0]                   
__________________________________________________________________________________________________
conv2d_11 (Conv2D)              (None, 32, 32, 256)  1769728     concatenate_1[0][0]              
__________________________________________________________________________________________________
conv2d_12 (Conv2D)              (None, 32, 32, 256)  590080      conv2d_11[0][0]                  
__________________________________________________________________________________________________
up_sampling2d_2 (UpSampling2D)  (None, 64, 64, 256)  0           conv2d_12[0][0]                  
__________________________________________________________________________________________________
concatenate_2 (Concatenate)     (None, 64, 64, 384)  0           up_sampling2d_2[0][0]            
                                                                 conv2d_6[0][0]                   
__________________________________________________________________________________________________
conv2d_13 (Conv2D)              (None, 64, 64, 128)  442496      concatenate_2[0][0]              
__________________________________________________________________________________________________
conv2d_14 (Conv2D)              (None, 64, 64, 128)  147584      conv2d_13[0][0]                  
__________________________________________________________________________________________________
up_sampling2d_3 (UpSampling2D)  (None, 128, 128, 128 0           conv2d_14[0][0]                  
__________________________________________________________________________________________________
concatenate_3 (Concatenate)     (None, 128, 128, 192 0           up_sampling2d_3[0][0]            
                                                                 conv2d_4[0][0]                   
__________________________________________________________________________________________________
conv2d_15 (Conv2D)              (None, 128, 128, 64) 110656      concatenate_3[0][0]              
__________________________________________________________________________________________________
conv2d_16 (Conv2D)              (None, 128, 128, 64) 36928       conv2d_15[0][0]                  
__________________________________________________________________________________________________
up_sampling2d_4 (UpSampling2D)  (None, 256, 256, 64) 0           conv2d_16[0][0]                  
__________________________________________________________________________________________________
concatenate_4 (Concatenate)     (None, 256, 256, 96) 0           up_sampling2d_4[0][0]            
                                                                 conv2d_2[0][0]                   
__________________________________________________________________________________________________
conv2d_17 (Conv2D)              (None, 256, 256, 32) 27680       concatenate_4[0][0]              
__________________________________________________________________________________________________
conv2d_18 (Conv2D)              (None, 256, 256, 32) 9248        conv2d_17[0][0]                  
__________________________________________________________________________________________________
conv2d_19 (Conv2D)              (None, 256, 256, 2)  66          conv2d_18[0][0]                  
__________________________________________________________________________________________________
reshape_1 (Reshape)             (None, 65536, 2)     0           conv2d_19[0][0]                  
==================================================================================================
Total params: 7,847,266
Trainable params: 7,847,266
Non-trainable params: 0
__________________________________________________________________________________________________
(None, 65536, 2)
Tensor("metrics/Mean_IOU/Shape:0", shape=(3,), dtype=int32)
(?, ?, ?)
…
